…
2023-05-11 23:02:17,489 - INFO - x shape: (16969, 12, 307, 3), y shape: (16969, 12, 307, 3)
2023-05-11 23:02:17,495 - INFO - train	x: (10181, 12, 307, 3), y: (10181, 12, 307, 3)
2023-05-11 23:02:17,495 - INFO - eval	x: (3394, 12, 307, 3), y: (3394, 12, 307, 3)
2023-05-11 23:02:17,495 - INFO - test	x: (3394, 12, 307, 3), y: (3394, 12, 307, 3)
2023-05-11 23:02:18,388 - INFO - NoneScaler
2023-05-11 23:02:25,248 - INFO - STTransformer(
  (patchencoder): patching_STconv(
    (paddings): ModuleList(
      (0): ReplicationPad1d((0, 0))
      (1): ReplicationPad1d((0, 1))
      (2): ReplicationPad1d((1, 1))
      (3): ReplicationPad1d((2, 3))
    )
    (tconvs): ModuleList(
      (0): Conv1d(3, 4, kernel_size=(1,), stride=(1,))
      (1): Conv1d(3, 4, kernel_size=(2,), stride=(1,))
      (2): Conv1d(3, 4, kernel_size=(3,), stride=(1,))
      (3): Conv1d(3, 4, kernel_size=(6,), stride=(1,))
    )
    (gconv): MixhopConv()
    (norm): Sequential(
      (0): Permution()
      (1): BatchNorm2d(64, eps=1e-05, momentum=0.1, affine=True, track_running_stats=True)
      (2): Permution()
    )
    (activation): Tanh()
  )
  (nodePEencoder): S_Positional_Encoding(
    (pe_encoder): LaplacianPE(
      (embedding_lap_pos_enc): Linear(in_features=154, out_features=64, bias=True)
    )
  )
  (tseqPEencoder): Positional_Encoding()
  (STencoders): ModuleList(
    (0): STBlock(
      (STransformer): _ST_Transfomer(
        (attention): _ST_Attention(
          (attn_dropout): Dropout(p=0.1, inplace=False)
          (values_proj): Linear(in_features=64, out_features=64, bias=True)
          (keys_proj): Linear(in_features=64, out_features=64, bias=True)
          (queries_proj): Linear(in_features=64, out_features=64, bias=True)
          (att_dropout_layer): Dropout(p=0.1, inplace=False)
          (fc_out): Linear(in_features=64, out_features=64, bias=True)
        )
        (drop_attn): Dropout(p=0.1, inplace=False)
        (norm_attn): Sequential(
          (0): Permution()
          (1): BatchNorm2d(64, eps=1e-05, momentum=0.1, affine=True, track_running_stats=True)
          (2): Permution()
        )
        (feed_forward): Sequential(
          (0): Linear(in_features=64, out_features=256, bias=True)
          (1): Dropout(p=0.1, inplace=False)
          (2): ReLU()
          (3): Linear(in_features=256, out_features=64, bias=True)
        )
        (norm_ffn): Sequential(
          (0): Permution()
          (1): BatchNorm2d(64, eps=1e-05, momentum=0.1, affine=True, track_running_stats=True)
          (2): Permution()
        )
        (dropout_ffn): Dropout(p=0.1, inplace=False)
      )
      (TTransformer): _ST_Transfomer(
        (attention): _ST_Attention(
          (attn_dropout): Dropout(p=0.1, inplace=False)
          (values_proj): Linear(in_features=64, out_features=64, bias=True)
          (keys_proj): Linear(in_features=64, out_features=64, bias=True)
          (queries_proj): Linear(in_features=64, out_features=64, bias=True)
          (att_dropout_layer): Dropout(p=0.1, inplace=False)
          (fc_out): Linear(in_features=64, out_features=64, bias=True)
        )
        (drop_attn): Dropout(p=0.1, inplace=False)
        (norm_attn): Sequential(
          (0): Permution()
          (1): BatchNorm2d(64, eps=1e-05, momentum=0.1, affine=True, track_running_stats=True)
          (2): Permution()
        )
        (feed_forward): Sequential(
          (0): Linear(in_features=64, out_features=256, bias=True)
          (1): Dropout(p=0.1, inplace=False)
          (2): ReLU()
          (3): Linear(in_features=256, out_features=64, bias=True)
        )
        (norm_ffn): Sequential(
          (0): Permution()
          (1): BatchNorm2d(64, eps=1e-05, momentum=0.1, affine=True, track_running_stats=True)
          (2): Permution()
        )
        (dropout_ffn): Dropout(p=0.1, inplace=False)
      )
      (norm1): Sequential(
        (0): Permution()
        (1): BatchNorm2d(64, eps=1e-05, momentum=0.1, affine=True, track_running_stats=True)
        (2): Permution()
      )
      (norm2): Sequential(
        (0): Permution()
        (1): BatchNorm2d(64, eps=1e-05, momentum=0.1, affine=True, track_running_stats=True)
        (2): Permution()
      )
      (dropout_layer): Dropout(p=0.1, inplace=False)
    )
    (1): STBlock(
      (STransformer): _ST_Transfomer(
        (attention): _ST_Attention(
          (attn_dropout): Dropout(p=0.1, inplace=False)
          (values_proj): Linear(in_features=64, out_features=64, bias=True)
          (keys_proj): Linear(in_features=64, out_features=64, bias=True)
          (queries_proj): Linear(in_features=64, out_features=64, bias=True)
          (att_dropout_layer): Dropout(p=0.1, inplace=False)
          (fc_out): Linear(in_features=64, out_features=64, bias=True)
        )
        (drop_attn): Dropout(p=0.1, inplace=False)
        (norm_attn): Sequential(
          (0): Permution()
          (1): BatchNorm2d(64, eps=1e-05, momentum=0.1, affine=True, track_running_stats=True)
          (2): Permution()
        )
        (feed_forward): Sequential(
          (0): Linear(in_features=64, out_features=256, bias=True)
          (1): Dropout(p=0.1, inplace=False)
          (2): ReLU()
          (3): Linear(in_features=256, out_features=64, bias=True)
        )
        (norm_ffn): Sequential(
          (0): Permution()
          (1): BatchNorm2d(64, eps=1e-05, momentum=0.1, affine=True, track_running_stats=True)
          (2): Permution()
        )
        (dropout_ffn): Dropout(p=0.1, inplace=False)
      )
      (TTransformer): _ST_Transfomer(
        (attention): _ST_Attention(
          (attn_dropout): Dropout(p=0.1, inplace=False)
          (values_proj): Linear(in_features=64, out_features=64, bias=True)
          (keys_proj): Linear(in_features=64, out_features=64, bias=True)
          (queries_proj): Linear(in_features=64, out_features=64, bias=True)
          (att_dropout_layer): Dropout(p=0.1, inplace=False)
          (fc_out): Linear(in_features=64, out_features=64, bias=True)
        )
        (drop_attn): Dropout(p=0.1, inplace=False)
        (norm_attn): Sequential(
          (0): Permution()
          (1): BatchNorm2d(64, eps=1e-05, momentum=0.1, affine=True, track_running_stats=True)
          (2): Permution()
        )
        (feed_forward): Sequential(
          (0): Linear(in_features=64, out_features=256, bias=True)
          (1): Dropout(p=0.1, inplace=False)
          (2): ReLU()
          (3): Linear(in_features=256, out_features=64, bias=True)
        )
        (norm_ffn): Sequential(
          (0): Permution()
          (1): BatchNorm2d(64, eps=1e-05, momentum=0.1, affine=True, track_running_stats=True)
          (2): Permution()
        )
        (dropout_ffn): Dropout(p=0.1, inplace=False)
      )
      (norm1): Sequential(
        (0): Permution()
        (1): BatchNorm2d(64, eps=1e-05, momentum=0.1, affine=True, track_running_stats=True)
        (2): Permution()
      )
      (norm2): Sequential(
        (0): Permution()
        (1): BatchNorm2d(64, eps=1e-05, momentum=0.1, affine=True, track_running_stats=True)
        (2): Permution()
      )
      (dropout_layer): Dropout(p=0.1, inplace=False)
    )
    (2): STBlock(
      (STransformer): _ST_Transfomer(
        (attention): _ST_Attention(
          (attn_dropout): Dropout(p=0.1, inplace=False)
          (values_proj): Linear(in_features=64, out_features=64, bias=True)
          (keys_proj): Linear(in_features=64, out_features=64, bias=True)
          (queries_proj): Linear(in_features=64, out_features=64, bias=True)
          (att_dropout_layer): Dropout(p=0.1, inplace=False)
          (fc_out): Linear(in_features=64, out_features=64, bias=True)
        )
        (drop_attn): Dropout(p=0.1, inplace=False)
        (norm_attn): Sequential(
          (0): Permution()
          (1): BatchNorm2d(64, eps=1e-05, momentum=0.1, affine=True, track_running_stats=True)
          (2): Permution()
        )
        (feed_forward): Sequential(
          (0): Linear(in_features=64, out_features=256, bias=True)
          (1): Dropout(p=0.1, inplace=False)
          (2): ReLU()
          (3): Linear(in_features=256, out_features=64, bias=True)
        )
        (norm_ffn): Sequential(
          (0): Permution()
          (1): BatchNorm2d(64, eps=1e-05, momentum=0.1, affine=True, track_running_stats=True)
          (2): Permution()
        )
        (dropout_ffn): Dropout(p=0.1, inplace=False)
      )
      (TTransformer): _ST_Transfomer(
        (attention): _ST_Attention(
          (attn_dropout): Dropout(p=0.1, inplace=False)
          (values_proj): Linear(in_features=64, out_features=64, bias=True)
          (keys_proj): Linear(in_features=64, out_features=64, bias=True)
          (queries_proj): Linear(in_features=64, out_features=64, bias=True)
          (att_dropout_layer): Dropout(p=0.1, inplace=False)
          (fc_out): Linear(in_features=64, out_features=64, bias=True)
        )
        (drop_attn): Dropout(p=0.1, inplace=False)
        (norm_attn): Sequential(
          (0): Permution()
          (1): BatchNorm2d(64, eps=1e-05, momentum=0.1, affine=True, track_running_stats=True)
          (2): Permution()
        )
        (feed_forward): Sequential(
          (0): Linear(in_features=64, out_features=256, bias=True)
          (1): Dropout(p=0.1, inplace=False)
          (2): ReLU()
          (3): Linear(in_features=256, out_features=64, bias=True)
        )
        (norm_ffn): Sequential(
          (0): Permution()
          (1): BatchNorm2d(64, eps=1e-05, momentum=0.1, affine=True, track_running_stats=True)
          (2): Permution()
        )
        (dropout_ffn): Dropout(p=0.1, inplace=False)
      )
      (norm1): Sequential(
        (0): Permution()
        (1): BatchNorm2d(64, eps=1e-05, momentum=0.1, affine=True, track_running_stats=True)
        (2): Permution()
      )
      (norm2): Sequential(
        (0): Permution()
        (1): BatchNorm2d(64, eps=1e-05, momentum=0.1, affine=True, track_running_stats=True)
        (2): Permution()
      )
      (dropout_layer): Dropout(p=0.1, inplace=False)
    )
  )
  (lineardecoder): depatching_conv(
    (padding): ReplicationPad1d((0, 0))
    (tconv): ConvTranspose1d(64, 32, kernel_size=(1,), stride=(1,))
    (seqlin): Sequential(
      (0): Linear(in_features=12, out_features=12, bias=True)
      (1): Permution()
      (2): Linear(in_features=32, out_features=1, bias=True)
    )
    (activation): Tanh()
  )
  (droput_layer): Dropout(p=0.1, inplace=False)
)
2023-05-11 23:02:25,250 - INFO - patchencoder.tconvs.0.weight	torch.Size([4, 3, 1])	cuda:0	True
2023-05-11 23:02:25,250 - INFO - patchencoder.tconvs.0.bias	torch.Size([4])	cuda:0	True
2023-05-11 23:02:25,250 - INFO - patchencoder.tconvs.1.weight	torch.Size([4, 3, 2])	cuda:0	True
…
